Week10/W10Experiment/mnist_cnn.pth (torch, 90729 bytes, 8 tensors)

conv1.weight f4 [10, 1, 5, 5]
000000 6e 7d e1 bd 56 44 8d 3c ce 76 f9 bc 35 19 a2 be
       -0.11010252 0.0172445 -0.030452158 -0.31659856
000010 d7 3b c2 bd 6b 41 50 3d a8 09 54 be 3f 40 c6 bc
       -0.0948407 0.050843637 -0.20706809 -0.024200557
000020 d8 56 0a bf e5 08 e1 be d0 91 81 3e c5 2a a6 3e
       -0.54038763 -0.43952098 0.2530656 0.32454506
000030 95 6c 1b 3f 24 4d 87 3e 4c 2e ac be 2a 12 9d 3b
       0.6071256 0.2642604 -0.33629072 0.004793425
000040 ec 97 cf 3d c0 28 d7 3e dc 69 bb 3e be 14 1b 3e
       0.10136399 0.42023277 0.36604202 0.15144631
000050 93 4f ce be 83 0d 02 be 9c 50 8f be 0f 61 ed 3d
       -0.40295085 -0.12700467 -0.27991188 0.11590778
000060 2e 08 8f 3d 2d ad f1 3d 9a 7b a6 3e a5 53 fd 3d
       0.06983982 0.11800609 0.32516176 0.123694696
000070 db c4 d9 bc 47 3c 80 3e 95 83 3b be f9 df e1 3e
       -0.026583126 0.25045988 -0.18311913 0.4411619
000080 a6 ef ba 3e ff 44 00 be c2 fe 22 3e 88 eb 8f be
       0.36510962 -0.1252632 0.15917495 -0.28109384
000090 d6 e0 9a 3e 3f a0 d1 3d df b6 e3 bc 7e 07 c7 3d
       0.3024966 0.10235643 -0.02779716 0.09718226
0000a0 57 f1 97 be 5e 2c 12 3e 7f fe 5a be df 61 88 be
       -0.29676315 0.14274737 -0.21386145 -0.2663717
0000b0 2c 72 f4 bd 35 ee 86 be d3 c7 df be 82 32 45 bd
       -0.11935839 -0.26353613 -0.4370714 -0.04814387
0000c0 19 87 c4 bc bc 7c 9e 3d 2d f7 cf bc 8a 1b 09 bd
       -0.0239902 0.07738635 -0.025386417 -0.03347353
0000d0 0a 74 ab be 25 0b fc bd ee 33 76 3e 51 d0 9e 3d
       -0.33486968 -0.12306813 0.24043247 0.07754577
0000e0 13 d4 90 be a9 cd 6e be d0 66 92 bc a7 da c3 3e
       -0.282868 -0.2332064 -0.01787129 0.38252756
0000f0 b3 17 68 be c4 2c 01 be d5 87 93 be ce 65 48 3e
       -0.2266529 -0.12614733 -0.2881457 0.19570085
000100 d2 79 6e 3e 15 b8 76 be 8e a9 a3 be 5e 4c be bb
       0.23288658 -0.24093659 -0.31965297 -0.0058074435
000110 cf 86 85 3e ff 2f 85 3e da 7d be bd 99 04 99 be
       0.26079413 0.2601318 -0.09301348 -0.2988632
000120 f8 65 a6 3d 87 76 bd 3d ce 7e 14 3d bc 12 0a be
       0.08124918 0.09251123 0.036253743 -0.13483709
000130 99 10 d8 bd bd 17 02 be 4f cd 44 3e 33 8d d2 3d
       -0.10550041 -0.12704368 0.19218944 0.10280838
000140 b7 24 67 be 07 3f 68 be a0 06 45 bd 1f 45 02 bc
       -0.225726 -0.22680293 -0.04810202 -0.00795105
000150 22 6c f8 3d 67 cc 89 3d 37 7c 99 be 25 47 38 be
       0.1213 0.0672844 -0.2997758 -0.1799589
000160 40 39 d3 3b f6 77 08 3e 72 a1 f8 bd fc 91 ad bd
       0.0064460337 0.13327011 -0.12140168 -0.0847511
000170 84 b2 a2 be 8d 3d 73 be 4a 18 15 3c a4 9e 24 bd
       -0.31776822 -0.23753949 0.009100029 -0.040190354
000180 f8 52 fa bd f1 08 09 bd 37 e7 9b be ad b5 8f bd
       -0.12222856 -0.033455793 -0.3044984 -0.07017074
000190 79 c6 55 be 2f aa 78 bd 21 77 aa bd de 16 88 3e
       -0.20876493 -0.060709175 -0.08323503 0.26579946
0001a0 8b db 95 3c 6c 47 94 be 07 54 a2 3c e4 d0 b0 3d
       0.018293163 -0.2896074 0.019815458 0.08633593
0001b0 00 14 08 3e 5f e1 9b be f3 e7 8d bd 58 81 40 3e
       0.1328888 -0.30445382 -0.069290064 0.1879934
0001c0 4c a1 4e 3e 4e f4 6c be f5 0e 96 bc ee 77 f6 3a
       0.20178717 -0.2314007 -0.018317679 0.0018804052
0001d0 5d 9e e1 bd 3d e8 4a bd 80 ca 08 3e 17 4e 20 3e
       -0.110165335 -0.049537886 0.13358498 0.15654789
0001e0 d3 d1 44 3e b2 c0 9f 3d ac 36 f3 3d 50 41 1e 3e
       0.19220667 0.078004256 0.11875662 0.15454602
0001f0 b5 c9 73 3e 30 97 f4 3b 05 90 79 3e 2c ac 95 bd
       0.23807414 0.007464312 0.24371345 -0.0730823
000200 15 01 f4 be 6d fd 2c be 3b 35 da bd 15 0e a0 3e
       -0.47657076 -0.1689355 -0.10654684 0.31260744
000210 9a 11 bb 3e e9 11 5e 3e 62 1f 0c be 2d 03 cd 3d
       0.36536866 0.2168652 -0.13683847 0.10010371
000220 7f 5b f9 3d 72 2a 9f 3e 51 a1 3a 3e bb 5f b4 be
       0.121756546 0.3108707 0.182256 -0.35229287
000230 a7 cf d1 bb 7a 84 65 be 2b 73 03 bb 44 a3 a9 3e
       -0.006402928 -0.22413817 -0.002005766 0.33132374
000240 30 9d a7 3c 0c 88 3d be 05 1a e1 3d d0 74 01 be
       0.020460695 -0.18508929 0.10991291 -0.12642217
000250 d9 09 79 3e d7 b3 89 3e 11 42 58 be de 4d 20 be
       0.24320163 0.2689502 -0.21118952 -0.15654704
000260 7b 91 a2 be b3 5f ce be 59 5f 97 be 50 ec 47 be
       -0.31751618 -0.40307388 -0.29564932 -0.1952374
000270 26 77 9b bd 40 29 df be 2f 4b 07 bd c7 96 fb 3d
       -0.07591085 -0.4358616 -0.033030685 0.12284618
000280 ba 1b d2 3d e9 06 5c be 15 6d 6f 3e 6f 9e 0d 3f
       0.10259195 -0.21487011 0.23381455 0.55319875
000290 1d e8 ce 3e 0c 4d 8e 3e e9 9a a6 3d ab 71 fa 3e
       0.40411463 0.27793157 0.081350155 0.48914847
0002a0 13 95 b5 3e ef 30 c6 bd 6b 50 d9 3d c4 5f 75 3e
       0.35465297 -0.09677302 0.10611042 0.23962313
0002b0 68 67 50 3c e0 5e 87 be 22 03 a4 be 6a 41 0c 3e
       0.0127199665 -0.2643957 -0.3203364 0.13696828
0002c0 9a 44 e7 3d 6c 6b b1 3d 52 5a 11 be 30 df 78 be
       0.112923816 0.08663067 -0.1419461 -0.2430389
0002d0 0c 0c 69 3e b0 c5 ad 3d 1c ec b2 be 32 77 b0 be
       0.22758502 0.084849715 -0.34945762 -0.3446594
0002e0 13 13 e5 be b5 f4 37 bd 5a 5c 9d be 54 b3 b7 be
       -0.44741115 -0.044911105 -0.3073452 -0.35879004
0002f0 0d 05 15 be 22 8b 14 3e 3f 55 4c 3e 37 a5 95 be
       -0.14552708 0.145062 0.19954394 -0.2922761
000300 e1 b5 fb bd c0 26 ed 3e 6f 6a a6 3e 6a c7 c4 3e
       -0.1229055 0.46318626 0.32503077 0.3843339
000310 20 70 95 3e a3 73 ce 3e 47 3d 02 3e b3 9b 4f bc
       0.29187107 0.403226 0.12718688 -0.012671399
000320 cc a3 57 be 51 62 02 be 07 c2 0d be 31 ac a9 3e
       -0.21058577 -0.12732817 -0.13843547 0.33139184
000330 41 67 86 3e 5d 3a 1f 3d d5 25 8f be 4d 24 e1 bd
       0.2625065 0.03887402 -0.2795855 -0.10993252
000340 0c 48 8e bd c3 3f 7e 3e ec 1e 71 3d af 2e 1b 3e
       -0.069473356 0.2482901 0.05886738 0.15154527
000350 6b df 3f bd 5c df cb be 63 fa 95 be f0 36 d5 3d
       -0.046843927 -0.39818847 -0.29292592 0.10410869
000360 b4 de 11 3e df 71 98 bd 5a f3 40 be ce 5c 06 be
       0.14245111 -0.07443594 -0.18842831 -0.1312134
000370 84 f9 bc bd ac 2b 2d 3e 31 58 b7 3e ab f1 d8 3d
       -0.09227279 0.16911191 0.35809472 0.105929695
000380 2a 41 11 3d 5e 8a 10 3b 9f b2 24 3e 83 b0 bb 3d
       0.035462536 0.002205513 0.16083764 0.09164526
000390 42 e7 38 3e 31 5d 83 be 6b 47 06 bd e5 30 9f 3e
       0.18056968 -0.25657037 -0.032782953 0.3109199
0003a0 ba e5 ae 3e 05 24 cb bd dc 95 80 be a9 2c 52 3e
       0.34159642 -0.099189796 -0.25114334 0.20524849
0003b0 10 3f 15 3f 1e 2b 46 3e 43 f0 c0 bc 94 4d 08 be
       0.5829935 0.19352385 -0.023552066 -0.13310844
0003c0 5a cf 70 3e 22 4a 55 3e 51 39 a5 bd cc 0c a1 be
       0.23516598 0.2082906 -0.08067573 -0.31455076
0003d0 55 b5 e7 be bb b6 0f bd 6a b6 2a 3e 36 79 16 be
       -0.45255533 -0.035086375 0.16671148 -0.14694676
0003e0 4f 9d 30 be 66 14 92 be
       -0.17247508 -0.28531188

conv1.bias f4 [10]
000000 36 c7 0a be 27 5e 25 3c 20 99 8c 3c bd 05 30 3e
       -0.13552555 0.010093248 0.01716286 0.17189689
000010 3c c9 92 3c a7 cf 18 be 75 75 05 bb 53 83 9b bd
       0.017918222 -0.14922963 -0.00203642 -0.075934075
000020 ee d1 ff bd 63 79 2b be
       -0.12491213 -0.16745524

conv2.weight f4 [20, 10, 5, 5]
000000 ab cb 97 3c ce 73 1f 3c 56 70 bc 3d 4e 38 ab 3d
       0.018529734 0.0097322 0.09201114 0.08360349
000010 4c 6d 59 3e 47 d1 54 3d 59 26 89 3d 11 3e 1f 3d
       0.212331 0.051957395 0.06696767 0.03887755
000020 1a 36 8e 3d f6 e5 5b bd 30 7f a8 3c 45 44 c7 bb
       0.06943913 -0.053686105 0.02056846 -0.0060811364
000030 6a 13 e7 bd 76 da 06 be dd 55 c2 bd 44 6e 18 3d
       -0.11283 -0.13169274 -0.09489033 0.037214532
000040 df 28 7c bc 50 35 7d be 60 2d ee bd 45 12 84 bd
       -0.015390604 -0.24727368 -0.11629748 -0.06448797
000050 e5 3a fc 3c a7 0d c7 bd be c1 d6 bc e5 b3 85 3d
       0.030789802 -0.09719401 -0.02621543 0.06528453
000060 c2 92 3f 3d 7e 0f c9 bd 1b 8d d7 bd 4e 10 b7 bd
       0.04677082 -0.09817408 -0.105249606 -0.08938657
000070 91 48 b7 3d fa d5 26 bd 56 a8 77 3d 4c a0 42 3d
       0.08949388 -0.040731408 0.060463272 0.047516152
000080 67 e9 2a 3e 8f 21 84 3d 9f 2b a7 bd 16 89 27 bc
       0.16690598 0.06451713 -0.08162617 -0.010225555
000090 74 52 07 bd d3 3f 53 bc 0a 17 12 be cd f0 df 3d
       -0.033037618 -0.012893635 -0.14266601 0.10934601
0000a0 38 f0 93 bd 88 9c 01 be a4 e3 d9 bc b2 e8 1b 3d
       -0.072235525 -0.12657368 -0.026597805 0.038063712
0000b0 c7 65 8b 3c 91 dc 10 3d 65 0e f0 3c 35 3a 56 3c
       0.017016305 0.0353666 0.029303739 0.013075401
0000c0 4d 61 20 bc 38 2e ca bd 78 2d 16 bd fa 4a 86 bd
       -0.009788823 -0.09872097 -0.036664456 -0.065572694
0000d0 48 b7 27 be a6 9c 6d be e9 27 94 bd 6f f5 ab bd
       -0.1637851 -0.23204288 -0.07234175 -0.08396422
0000e0 0c 2f b3 bd 65 94 e2 bd 8c 78 a9 bd 70 af d2 3d
       -0.08749208 -0.1106346 -0.082749456 0.10287368
0000f0 0a d0 95 bd 17 29 09 be 35 95 08 3d 86 d2 5a 3e
       -0.07315071 -0.13394581 0.03334542 0.21369371
000100 3e d5 52 3c 2c d2 f4 bc d0 fd 74 3b 4c bf e4 3d
       0.012868224 -0.029885374 0.003738273 0.111692995
000110 81 6f c4 3d 93 b5 02 3b aa 7c 15 3d dd a2 9b 3b
       0.0959158 0.0019944652 0.036495842 0.0047496394
000120 d2 da 9d bd c1 e8 11 3b dc 14 47 bc 70 77 86 bc
       -0.07707752 0.0022263976 -0.012150969 -0.016414374
000130 85 19 79 b9 86 5c 3f 3c db 5f 7c bd ad b8 90 bd
       -0.00023755997 0.011679774 -0.061614852 -0.07066474
000140 06 63 35 bc b1 45 06 bd 7f 19 a5 bd 91 4a 4b bb
       -0.011070972 -0.032781307 -0.080615036 -0.0031019787
000150 56 04 93 bd f3 cb a0 bd 0e 79 c0 bb eb 6e 1c bd
       -0.071785614 -0.078514 -0.005873806 -0.038191717
000160 52 c5 28 be ec 0a 53 bd 8b 32 80 bc 30 3e 51 bd
       -0.16481522 -0.051524088 -0.0156491 -0.051084697
000170 10 38 0a be 11 af ce bd f1 1c 14 be af cc 1b bd
       -0.13497949 -0.10091985 -0.14464165 -0.038037
000180 a7 2e a1 bd 85 2b b4 3c 30 6f c6 bc ae 17 3c bc
       -0.07870226 0.021993408 -0.02422294 -0.011480255
000190 41 6a 61 bc 8b 74 f5 3d 4c f2 b0 3a 84 78 03 3c
       -0.013758243 0.119851194 0.0013499944 0.008024339
0001a0 9d fb 99 3d e7 53 f2 bd 72 a2 ed bd 12 a9 e9 bd
       0.075186945 -0.11832409 -0.116032496 -0.11409201
0001b0 aa 89 eb ba c7 c1 18 bd 42 2b 13 bd 5d 13 42 3d
       -0.0017970104 -0.037294175 -0.035929926 0.047381748
0001c0 26 22 26 3c 56 f6 56 bc bc c2 fd 3c 76 1e 21 bd
       0.010139978 -0.0131202545 0.030976646 -0.03933569
0001d0 f1 81 6e ba 94 1c 8e bb 2f fa 1c 3e 39 b8 cf bc
       -0.0009098342 -0.004336903 0.15329812 -0.025356399
0001e0 85 b7 c0 3c 3d 14 3f 3d 37 2e 3e 3e 51 16 18 bd
       0.023525009 0.04665016 0.18572317 -0.037130658
0001f0 74 59 b6 bd 87 6f dc 3d 59 1c e4 3d 3c 21 8f 3d
       -0.089037806 0.1076346 0.111382194 0.06988761
000200 86 33 46 3e 05 9e 72 3e 4a 8c b3 bb b2 fe 94 3d
       0.19355592 0.23693092 -0.0054793702 0.07275142
000210 c3 72 06 3e c2 81 68 3e 1d 91 8c 3c b8 ff de bd
       0.13129716 0.22705749 0.01715904 -0.10888618
000220 a5 81 0c be 07 aa 42 bd 9c 6e 22 be b4 47 ad bb
       -0.1372133 -0.047525432 -0.15862507 -0.0052880887
000230 af df 85 bd b2 3f f9 bd 9d e6 18 be 84 cb 2a 3b
       -0.06536805 -0.12170352 -0.14931722 0.0026061246
000240 f1 29 92 3c 3a cf b7 bd ce 36 f4 3c 47 6a ac 3c
       0.017842265 -0.08975072 0.02981129 0.02104677
000250 2c 2b cb 3c 5e c3 c2 bd 70 15 b1 bd 65 51 d8 bd
       0.02480086 -0.095099196 -0.08646667 -0.105624
000260 b2 65 f7 3d 92 ee 1a bc 0e 0e 5d bb a7 af f6 bd
       0.12079944 -0.009456294 -0.00337303 -0.12045222
000270 e9 83 4a 3c c7 f7 3c bd 10 58 66 be 8e cc 04 bc
       0.012360551 -0.046134736 -0.2249453 -0.00810541
000280 e8 ff e7 bc ce 53 90 bd b6 bd c3 3c 1a 97 22 3e
       -0.028320268 -0.070472345 0.023894172 0.15877953
000290 23 c6 69 3d ae a7 5c 3d 11 d8 90 3e ff c9 73 3e
       0.057073724 0.05387085 0.28289846 0.23807524
0002a0 f3 5f 0c bc 9f 27 fb bd ec a7 fc 3c 9b 26 99 3d
       -0.008567798 -0.122634165 0.03084179 0.074780665
0002b0 e5 d2 15 be ec b5 11 be 33 b0 1c be 2f 67 03 be
       -0.14631231 -0.14229554 -0.1530159 -0.1283233
0002c0 c0 30 b2 3c 2b 14 c4 bc 91 bd db 3a 25 5a 2a be
       0.021751761 -0.023935398 0.0016764869 -0.1663595
0002d0 ec cd cc bd 55 2d d8 bd 7c d0 42 be 84 73 64 be
       -0.10000214 -0.105555214 -0.19024843 -0.2230969
0002e0 3b ee 9b bd 82 9b 2e bd 97 2f 67 3d b4 6b 05 3e
       -0.07613798 -0.042628773 0.05644187 0.13029367
0002f0 b1 06 e2 bd 8a b6 44 be 5e 7d df bc 0d f7 eb 3b
       -0.110364325 -0.19210258 -0.02728146 0.0072010816
000300 c1 57 90 bc d2 f9 dc 3c 48 9b 30 3c e0 69 8f bd
       -0.01761997 0.026974592 0.010779209 -0.07002616
000310 d7 9e 4e bd e0 5f 49 3d a0 0c 3b 3d b8 ae f4 bb
       -0.05044445 0.0491637 0.045666337 -0.007467117
000320 7f ea 93 bc 5d 26 25 bd 1e 4c 98 3c fb f5 75 3d
       -0.018056152 -0.04031979 0.018590983 0.06004904
000330 f7 55 78 3c ed eb d1 bc eb 69 b3 3c fc 5f ca bc
       0.015157214 -0.025625193 0.021901092 -0.024703972
000340 55 60 3b 3c f4 cf cb bb 24 2d d8 3c 05 fe 5c 3d
       0.011436542 -0.0062198583 0.026388712 0.05395319
000350 cc c7 00 be a1 1d 77 bd 01 97 5a 3c a7 d8 09 3d
       -0.12576216 -0.06033099 0.013341666 0.03365388
000360 63 5d c6 bd 7d 26 c8 3d 64 30 f2 3d be b0 a3 bc
       -0.09685781 0.09772966 0.11825636 -0.019981738
000370 d1 86 c2 bc b9 d5 80 3d 8d f6 68 3d 58 2d dc 3c
       -0.023745926 0.06290764 0.056875754 0.02687709
000380 d6 02 50 3d ac a9 05 be 80 bd 17 be 80 bc ea bd
       0.050783955 -0.13053006 -0.14818382 -0.11461735
000390 92 70 08 be dc 55 51 bd 44 8f 08 be 4a 3a f5 bc
       -0.13324192 -0.051107273 -0.13335901 -0.029935021
0003a0 54 44 eb bd c8 cc 05 be e6 e2 45 bc 0d 9c 3f be
       -0.11487642 -0.13066399 -0.012078023 -0.18711872
0003b0 bf 03 90 be 25 03 5e be 04 e5 f1 3d 07 ad 79 3e
       -0.28127858 -0.21680887 0.118112594 0.24382411
0003c0 c9 0b fa bd 12 48 d6 bd e2 cd 85 3d 61 ba 56 3e
       -0.12209279 -0.10462965 0.0653341 0.20969535
0003d0 d2 74 29 3e eb 75 51 be fa ba fc bd 20 8d 2f 3e
       0.1654847 -0.20455138 -0.123403504 0.17143679
0003e0 8c cf 0c 3e f2 d7 48 3d 82 2e c6 3d 4b 2b 82 bb
       0.13751048 0.049034066 0.096768394 -0.003972446
0003f0 d5 b2 05 be 01 a1 9a bd 01 5f cb bb ba 69 70 3c
       -0.130565 -0.0755024 -0.0062063937 0.014673645

conv2.bias f4 [20]
000000 20 91 d2 bd e1 ae 8e bc ef d0 0e bd 1c f5 e4 3c
       -0.10281587 -0.017417373 -0.034867223 0.027948909
000010 d2 ed ac 3c 22 59 6c 3d 77 f1 c6 3b bf 5a f4 bc
       0.021109495 0.05770219 0.0060712653 -0.029828427
000020 bd 09 50 3c c4 1b a1 3b 20 69 05 bd 13 3a a8 bc
       0.012697634 0.00491664 -0.03257096 -0.020535504
000030 6e 0e 3f bd 10 c9 96 bd ba b0 97 bd 5e 9c d2 3b
       -0.04664462 -0.073625684 -0.07406755 0.006427332
000040 9e 0c 7b 3d d6 42 14 bd c5 d2 19 bd 7c b3 c6 bb
       0.06129133 -0.036196552 -0.03755452 -0.0060638767

fc1.weight f4 [50, 320]
000000 06 39 61 3d 62 ce a2 3d cd d4 9c bd 7e 8a af bd
       0.054986022 0.07949521 -0.07657776 -0.08571337
000010 2f 86 6c bd 7d cd d9 bd a1 e2 4a 3d 32 1f c7 3c
       -0.057745155 -0.10634897 0.049532536 0.024306867
000020 d6 f2 fc bc 3a d7 fd bc 2a 9f 05 be b9 00 93 bd
       -0.030877512 -0.030986417 -0.13048998 -0.07177872
000030 f1 11 22 bb 1f bb 4f bd 67 3f 20 bd 69 ba 08 3c
       -0.0024729932 -0.050715562 -0.039122965 0.008345225
000040 36 93 8c 3c 89 56 a7 bd 07 0d be bb 24 96 d6 3c
       0.01716004 -0.08170802 -0.005799893 0.02619464
000050 4f b7 28 bd 45 66 aa 3c 38 7c 0b bc ed 23 88 3d
       -0.04119044 0.020800719 -0.008513503 0.06647477
000060 39 da 5d bc a9 ff 92 3c 7b 28 49 3d 67 8c 3c bc
       -0.013540798 0.017944174 0.04911087 -0.011508084
000070 c4 82 28 bd 7c 9b 46 bc b8 cb 2c bc 25 a6 06 3d
       -0.041140333 -0.012122031 -0.010546617 0.03287329
000080 99 08 0d bd 27 41 d4 bc 63 b0 2e bd 80 9a 48 bd
       -0.034432027 -0.025909973 -0.042648684 -0.048975468
000090 11 e7 b0 bc 3a ae 99 3d 1f e0 f9 3d d9 87 7c 3a
       -0.021594556 0.07503934 0.12200951 0.000963328
0000a0 7e b3 4d bd e4 2a 5d bd f2 b0 53 bd 6c c8 94 bd
       -0.050220005 -0.05399598 -0.05168242 -0.0726479
0000b0 79 e0 a4 bb 26 c0 4f bc 3f 9b 08 bd 30 c3 93 3d
       -0.005031642 -0.012680089 -0.03335118 0.072149634
0000c0 fa cc 88 3d 06 f7 3c 3d bc f4 a1 3d 6c 58 07 3c
       0.06679721 0.046134017 0.079080075 0.0082608275
0000d0 1b c7 84 bc 2e ea 09 3d 31 fa ac 3c 70 8f 1f 3c
       -0.016208222 0.033670597 0.021115394 0.009738788
0000e0 4a cd 35 bc 06 fd 06 3d 1d 33 06 be b2 ad 25 bd
       -0.011096308 0.032956146 -0.13105436 -0.040448852
0000f0 09 90 98 bb 6b 59 37 bd f5 f9 a6 bc 9c 99 29 3d
       -0.004655842 -0.04476301 -0.02038286 0.04140626
000100 22 3b 31 bd 38 28 79 bc 8d 0e 06 bb cc d5 e0 3d
       -0.043269284 -0.015207343 -0.002045545 0.109782785
000110 29 21 51 bc 2c 7f ff bc 97 ae cf bc 1b 52 f5 3c
       -0.012764254 -0.03118857 -0.025351806 0.029946378
000120 68 f2 c3 3c 94 27 d6 ba 9f 1b 4e bd 65 a0 10 3d
       0.0239193 -0.00163387 -0.05031931 0.035309214
000130 6b 4c 8d 3c 4e e6 36 bc 1a 8c 0f 3c cf a9 50 3d
       0.017248353 -0.011163307 0.00876143 0.050943192
000140 f9 89 c8 bb bf 9c 2f bc 41 2e 16 3d 25 cf 2f 3d
       -0.0061199632 -0.0107185235 0.036665205 0.042922158
000150 22 c4 0d 3d 3f 2b 9d ba e8 bb 18 bd 23 fd 98 3d
       0.034610875 -0.0011991038 -0.037288576 0.07470157
000160 6d ef e5 bd a0 17 9c bd bb 02 24 3d 89 51 8a 3c
       -0.112273075 -0.076216936 0.040041666 0.016884582
000170 5c c4 7d bd 6e 5d 4d 3d 3d 92 49 3d 75 85 9b bb
       -0.06195484 0.05013793 0.04921173 -0.004746134
000180 c5 48 92 3d e6 07 c1 3d 69 d4 02 bd 07 1e 33 bd
       0.07142786 0.09425335 -0.03194085 -0.04372981
000190 eb c8 84 bc 02 22 aa bc bf 86 a0 bd fe d5 ba 3b
       -0.016209086 -0.02076817 -0.07838201 0.0057017794
0001a0 43 1c fa ba 7f be 23 bd f6 36 d0 bc e8 41 26 bd
       -0.0019081909 -0.039976593 -0.025416832 -0.040590197
0001b0 1a be 77 bd d0 86 98 bd a3 0f 77 bd 77 4d 01 3d
       -0.06048403 -0.074475884 -0.060317647 0.031568017
0001c0 f1 be 41 bc 48 a5 9a bc cb 31 b2 bc f2 8f 8c bd
       -0.011825309 -0.01887764 -0.021752259 -0.06863393
0001d0 62 56 fa 3c 7d 1a 05 3e 9a 8d 21 3c 36 18 10 bd
       0.030558769 0.12998386 0.009860421 -0.03517934
0001e0 89 94 24 bd cd ed df 3c e6 e7 d0 bc d8 3c 9a 3d
       -0.040180717 0.027335072 -0.025501203 0.07531136
0001f0 69 cd 8e bd 7d 6c af bc 8c 68 b8 bd 96 e0 28 be
       -0.06972773 -0.021414036 -0.09004316 -0.16491923
000200 d9 b1 0f 3d a3 e3 1c bc 47 0c 39 bd 9a ce 88 3d
       0.035081718 -0.009575757 -0.045177724 0.06680031
000210 81 45 78 bd 67 79 99 b9 64 db 84 3c 11 1e 3f bd
       -0.06061316 -0.00029272886 0.016217895 -0.046659533
000220 c5 60 c6 bc 6d d8 8e 3d 9d 72 ee 3a 07 88 08 3d
       -0.024216065 0.06974874 0.0018192116 0.03333285
000230 17 22 5d 3c e4 4e 82 3d cd 6e 8c 3d 02 3e 9b 3d
       0.013496897 0.063627034 0.06857071 0.075801864
000240 00 57 d2 bc 81 75 38 bd 93 7e 13 3d 30 d1 2e 3d
       -0.02567625 -0.045033935 0.036009382 0.042679965
000250 8c 66 39 bd bf dc 12 bd 83 4e f0 3c ca 2f a7 bc
       -0.045263812 -0.03585505 0.029334312 -0.02040853
000260 92 9b c2 3b 39 fc a8 bd af e7 64 3c e9 b8 db bd
       0.0059389556 -0.08251233 0.013971253 -0.10728628
000270 42 69 68 3d 8e a2 8d 3d b5 97 8a bd d1 67 65 bd
       0.056741007 0.069157705 -0.06767217 -0.05600721
000280 6b 6a 7e 3c d8 33 8e 3d b0 f7 8b bd 96 d9 9e bd
       0.015528302 0.06943482 -0.06834352 -0.07756345
000290 a9 e9 8e bc 39 71 ac b9 35 49 ca 3d 51 f5 ad 3c
       -0.017445402 -0.00032890754 0.098772444 0.02123514
0002a0 5b 45 46 bd 9d 88 ce 3c 59 e1 63 ba 8e 4f ab bc
       -0.048405986 0.025211627 -0.0008692942 -0.020911958
0002b0 78 e1 77 3c 05 3c 81 bd 7e ff 69 bc d8 88 65 bb
       0.0151294395 -0.06310276 -0.0142821055 -0.0035024192
0002c0 55 f1 50 bd 11 c0 1f 3d 85 3d fb bb 3d 5c 55 3d
       -0.051011402 0.03900153 -0.007667246 0.05208992
0002d0 61 c5 78 3b 8d 78 86 bd bb 98 d0 bc 34 bc 97 bc
       0.0037959444 -0.06565962 -0.025463453 -0.01852236
0002e0 14 af a6 ba 14 4b 1e bd ab 5d 3b 3c c0 9f bb bb
       -0.0012716972 -0.03864582 0.011435906 -0.005725831
0002f0 c9 09 76 3d ec fd 4e bd 1e 0f 8a bc c2 8b 99 bc
       0.060067926 -0.050535128 -0.016852912 -0.0187434
000300 de b4 ed bc 8b 1a ba 3c 47 c7 81 3d e5 29 42 3c
       -0.029016908 0.022717735 0.06336837 0.011850809
000310 81 5d 0a 3c 91 0f 82 bd 7e d1 7b 3d e8 76 b0 3d
       0.008445145 -0.06350625 0.061479084 0.086164296
000320 5d 98 d9 bb 37 79 89 bb 69 9b 7d bc f0 fb 65 3c
       -0.0066404776 -0.004195358 -0.015478947 0.014037117
000330 97 79 34 bc 5c b0 a4 bc d4 42 38 bc b7 13 3e 3d
       -0.011015317 -0.020103626 -0.011246402 0.04640552
000340 42 65 44 bb f4 73 98 bc 0c 88 78 bd 68 67 7b 3c
       -0.002996758 -0.018609978 -0.06067662 0.015344478
000350 d6 a8 c5 bb f4 2f 3a 3d 04 e2 02 bd 40 65 91 bc
       -0.0060320897 0.045455888 -0.031953827 -0.017748475
000360 94 f5 36 3d 0d 33 49 3d ed a5 55 bd 3f b5 8d bc
       0.044667795 0.04912095 -0.052160192 -0.017298339
000370 35 3c eb bb cb 4f 97 bd ca da 91 3d 57 c4 d5 bc
       -0.007178808 -0.07388266 0.07121809 -0.026094599
000380 d3 78 1f 3d c2 ce cc 3d d0 05 5c bd 8e ac 28 bd
       0.038933586 0.100003734 -0.05371648 -0.041180186
000390 e0 bc 44 bd 8a 4a 8b bb b0 a5 a7 3d f6 49 af 3d
       -0.048031688 -0.004250829 0.08185899 0.08559029
0003a0 a2 dd 91 bd f5 92 8a bc 84 f3 42 39 e8 4a 40 bd
       -0.07122351 -0.016915778 0.00018591998 -0.046946436
0003b0 a8 97 14 bc 56 d8 a4 bd c7 2d b5 bd 03 0d f5 bc
       -0.009069361 -0.08049075 -0.08846622 -0.029913431
0003c0 6c 50 bf bd 56 01 31 bb 71 b6 4c 3d 8b 30 b7 bb
       -0.09341511 -0.0027008853 0.049978677 -0.0055905036
0003d0 3e 19 98 3c 79 38 b4 bc f5 bf d3 3d e9 70 59 3d
       0.018566724 -0.021999585 0.10339347 0.053086195
0003e0 20 87 44 bc 77 af 15 bd 68 28 08 bd fa c3 bb 3d
       -0.011995107 -0.03654429 -0.03324166 0.09168239
0003f0 c6 db e8 bb 66 97 aa bd 77 4c 13 bd d6 50 50 3d
       -0.007106277 -0.08329658 -0.035961594 0.05085834

fc1.bias f4 [50]
000000 c3 ec 2a 3d 62 0d b3 bc b2 29 81 bd 29 c9 32 bd
       0.0417297 -0.021856967 -0.06306781 -0.043648873
000010 bd e3 62 3d 8e 38 0b bc 9c 5b 60 bd f1 36 f9 3c
       0.05539297 -0.00849737 -0.054774866 0.030421706
000020 1b 84 82 3c ed 99 df 3c ac 0c 00 3b e8 ab c7 3b
       0.015932133 0.027295077 0.0019538803 0.006093491
000030 46 6c 02 3d b5 4f 4d bd de b6 c1 3c d6 da dc 3c
       0.03184154 -0.050124843 0.023646768 0.026959818
000040 9f ce f2 3c 46 39 a0 bc 00 01 24 bd 64 50 06 3d
       0.02963954 -0.01955856 -0.040040016 0.03279151
000050 a8 dc bf 3b 86 31 da bc 5d 0d 50 bd b4 e0 25 3d
       0.0058551617 -0.026634943 -0.050793994 0.040497497
000060 48 ce 42 bc 43 48 50 3d 5d 79 54 3d 8d 62 06 bd
       -0.011890002 0.050850164 0.051873554 -0.03280883
000070 f2 e0 2e 3c 72 83 45 ba a2 04 e8 3c cf 4a 5c bc
       0.010673748 -0.00075345405 0.028322522 -0.01344557
000080 22 50 7e 3c c2 91 05 3d 39 e1 07 bd 66 fa b8 bc
       0.015522035 0.03260971 -0.033173773 -0.022580337
000090 cf a7 d6 bc 8b 0f 76 bd 9e f4 f0 bb 73 41 86 bc
       -0.026203064 -0.060073417 -0.0073533794 -0.01638863
0000a0 a2 8b ce bb 40 1a a3 bc 75 2f 50 bd 10 83 ad bc
       -0.0063032666 -0.019909978 -0.05082651 -0.02118066
0000b0 70 d9 86 3b ea 33 9d bb 15 41 8c 3b 1e 7b 70 bd
       0.004115276 -0.0047974484 0.0042802193 -0.058711164
0000c0 93 aa 48 3c be 30 55 bd
       0.012247699 -0.052048437

fc2.weight f4 [10, 50]
000000 e3 90 30 be c2 6f 21 3e c5 0d 7c be 34 75 02 be
       -0.1724277 0.15765288 -0.24614628 -0.12740022
000010 be c6 09 3e 4e a3 15 be c9 f6 9b be 07 14 06 3e
       0.1345472 -0.14613077 -0.3046172 0.13093577
000020 83 2c b1 3e 3f db b5 3d 53 d2 c5 3e d6 15 63 3e
       0.34604272 0.088797085 0.38637027 0.22176298
000030 95 e1 c7 3d cb bf a6 be 64 cc 3c be 4c 9a 86 3e
       0.09759823 -0.325682 -0.18437344 0.26289594
000040 42 0d 99 bd 36 c5 90 3d d0 37 da bd c9 b4 8a 3e
       -0.07473232 0.07068865 -0.10655177 0.27091053
000050 38 9e 93 3d 43 57 c1 be 74 ac b0 bd d7 c6 d4 bd
       0.07207912 -0.37761888 -0.08626643 -0.10389488
000060 a6 ae 3e be da 9e 37 be cd 4c 16 be 1d e3 51 bd
       -0.1862131 -0.17931691 -0.14677735 -0.051241983
000070 79 b3 0a be e8 24 0b be 27 86 8b 3d 7b 4e e4 bd
       -0.13545026 -0.13588297 0.06812697 -0.111477815
000080 6d db a1 3e 65 42 14 be 8e 3e a8 bd bf e9 92 be
       0.3161272 -0.14478453 -0.08215056 -0.2869396
000090 c2 37 8b 3e 2d 02 06 bd 05 53 b1 3e 67 d0 48 be
       0.27190977 -0.03271692 0.3463365 -0.19610749
0000a0 40 dc 0b be 92 24 e1 bd 5e 38 d2 bd 93 13 2e be
       -0.13658237 -0.10993303 -0.102646574 -0.16999654
0000b0 f9 cd ab bd b9 3b 9e 3d d3 e8 08 be 07 f5 42 3d
       -0.083888955 0.07726235 -0.13370065 0.047596958
0000c0 e1 4d 5b bd 96 ff e7 bd ee 06 4b bc 4c 69 cf bd
       -0.053541068 -0.11328046 -0.012391789 -0.10127506
0000d0 43 2e 2c 3e 2a a4 03 bc 6f 33 80 be 4a 8d b1 3e
       0.16814522 -0.008034745 -0.2503924 0.34678108
0000e0 5e 34 20 be d1 2b 47 bd 59 27 bc bc 07 90 41 3e
       -0.15644976 -0.04862577 -0.022967981 0.18902598
0000f0 fd e1 21 be 4c b2 c9 3d d6 9b 5d be 9c ca 33 be
       -0.15808864 0.098484606 -0.21641478 -0.17557758
000100 96 d0 9a 3e 0f 03 e7 bd 95 28 0b be dc fe 97 3e
       0.30237263 -0.1127988 -0.135897 0.2968663
000110 3e 08 29 3d 54 60 08 be 82 d5 57 3d e2 59 eb 3d
       0.041267626 -0.13317996 0.05269385 0.11491753
000120 c9 4f 53 3e 62 87 84 3d 01 43 ee 3d 66 19 8c 3e
       0.20635904 0.06471135 0.11633874 0.27363127
000130 5c 3d 85 3b df aa 25 3e 8b fa a7 3e 8f 09 e5 bd
       0.0040661525 0.16178463 0.32808337 -0.11183464
000140 6a 4d e6 3e 7b 7a 92 be a0 12 a4 3d 6d a0 44 3e
       0.44980937 -0.2860907 0.08011365 0.19201823
000150 b0 73 c0 bd 63 61 8d be 7e 39 21 3e f3 ad cf bc
       -0.09397066 -0.27613363 0.15744588 -0.0253515
000160 72 00 34 3e 98 e5 5f 3d 22 05 d5 3d 74 eb 9d 3d
       0.17578295 0.054662317 0.1040137 0.07710925
000170 e3 80 0f 3e fd 17 ab 3e 3d a7 cc be 87 90 a4 be
       0.1401401 0.3341674 -0.39971343 -0.32141516
000180 1d 28 77 3e 37 61 3e bd 2b 0f 0e be 8e f2 96 3d
       0.24136396 -0.04647943 -0.13872974 0.073704824
000190 75 dc bd bd 0f 8c 0e be 89 18 e4 3e 25 9b 94 3d
       -0.092705645 -0.13920616 0.4454997 0.07256154
0001a0 f1 75 90 3e 6f 70 47 3e 6d 23 a1 3d 8e da 76 be
       0.28214982 0.19476484 0.07868085 -0.2410681
0001b0 82 a0 bb bd f4 ad fd bd a9 eb 02 3e 46 a2 1c 3d
       -0.09161474 -0.123866946 0.1278521 0.038240694
0001c0 21 95 7c 3d 47 f6 96 be 22 5c 4d 3d b7 13 8b be
       0.061665658 -0.2948477 0.050136693 -0.2716348
0001d0 6d 07 ea 3c 45 71 67 be c1 39 68 bd bc 66 1a bd
       0.028567994 -0.22601803 -0.056695703 -0.03769563
0001e0 17 6f 2e be 5f cd 9a bd 36 12 1d be af 38 aa 3e
       -0.17034565 -0.07558703 -0.15338978 0.3324637
0001f0 74 65 8f 3e 4a c6 e5 bc b1 23 30 3d b5 55 0f be
       0.2800709 -0.028048653 0.043002788 -0.13997538
000200 ce a3 02 bf 0b 99 7a bd 63 7f ee 3c 20 f7 67 bd
       -0.51031196 -0.06118111 0.029113477 -0.05663216
000210 f0 0a 4a be f5 1b 56 3d ea bb 5a bd 86 48 0c be
       -0.19730735 0.052272756 -0.053401865 -0.1369954
000220 49 91 e3 bd 40 2d 8a 3e 8a 7d a5 3e bd 1f 9c be
       -0.11111695 0.26987648 0.3232234 -0.30492964
000230 36 40 b7 3e ec 42 54 be f6 26 db 3d 7a 32 18 3e
       0.35791177 -0.20728654 0.107007906 0.14863005
000240 85 f7 75 bd 10 34 f7 3e 5f a9 6a 3e e5 f8 83 3e
       -0.060050506 0.48281908 0.22916172 0.2577583
000250 db 56 7a 3d 26 a0 99 bd 02 63 1a 3e 96 b3 2b be
       0.061117988 -0.07501249 0.15076831 -0.16767725
000260 c0 95 28 be bb aa fd bd 27 46 a1 3e b7 e1 d6 be
       -0.16463375 -0.1238608 0.31498834 -0.41969082
000270 a4 69 cf 3e 02 ef 01 3e c8 bf a3 3e 9d 8f ab be
       0.40510285 0.1268883 0.31982255 -0.33508006
000280 f1 b4 b9 bd 46 f3 67 bc 49 c6 33 be e4 69 ab 3e
       -0.09067715 -0.014157122 -0.17556109 0.33479226
000290 93 84 65 3e fd 58 54 be 7b e4 f1 3d 6e 11 2e be
       0.22413854 -0.20737071 0.11811157 -0.16998836
0002a0 8f 4b a8 bd 43 3c d1 3d 9e 72 96 be 55 c5 61 be
       -0.08217537 0.10216572 -0.2938432 -0.22047932
0002b0 6c f1 35 bc 06 96 fa 3d 19 f7 05 be d3 f3 a3 bb
       -0.011104923 0.12235646 -0.13082542 -0.0050034313
0002c0 5d 91 a9 bd 6e fd 6e bc 66 25 37 be c3 b7 5a 3d
       -0.08279679 -0.0145867895 -0.1788536 0.053397905
0002d0 5f a7 59 bb ec 07 a2 be be 01 07 be ee 19 f6 bd
       -0.0033211333 -0.3164667 -0.13184258 -0.120166644
0002e0 14 16 6a be 6f 29 6d bd 71 5c 50 be c3 76 9e be
       -0.22859985 -0.057900842 -0.20347764 -0.30949983
0002f0 62 c4 67 be 03 cd dc 3e c5 de cd bd 23 fc 98 3e
       -0.22633508 0.43125162 -0.100522555 0.29879865
000300 a0 87 c9 3d 4e 90 b2 bd 94 0b 15 3e f6 e3 0d 3d
       0.098403215 -0.0871893 0.14555198 0.03464123
000310 d4 7a 6f 3e a7 24 44 3e 4c f7 6f be e0 d0 b8 3c
       0.23386699 0.19154607 -0.2343418 0.022560537
000320 55 fb a7 be da 8f 41 3e 4e 8b 88 be 23 87 5c bb
       -0.3280894 0.18902531 -0.2666878 -0.0033649884
000330 e1 c2 1e bf ee e3 17 bc d6 b6 3c be 87 3c 24 3e
       -0.6201611 -0.009270651 -0.18429121 0.16038714
000340 4c 44 3d 3e 49 b6 13 3c 9a 76 50 be 04 f4 09 bd
       0.18483084 0.009015628 -0.20357743 -0.033679977
000350 67 d8 dc 3e a3 bf 80 3d 2c 0c 35 be 47 93 44 be
       0.43133852 0.06286552 -0.17680424 -0.19196807
000360 c7 dd f0 bd 40 31 54 be 59 fe f1 3c e6 88 78 be
       -0.11761051 -0.20721912 0.029540228 -0.24270973
000370 75 a9 42 be 47 56 9a 3e ba 22 73 3d b8 23 bb 3e
       -0.19009955 0.3014395 0.05935929 0.3655069
000380 62 53 8f 3e 35 0e a9 3d a2 a4 8a bd a4 ba 33 bc
       0.27993304 0.08254663 -0.067696825 -0.010969792
000390 e2 b2 8d 3e 7f 24 0f be 4d f2 76 3e 47 e0 16 3f
       0.2767554 -0.13978766 0.24115868 0.5893597
0003a0 2c 62 5c bd d5 a3 85 3e c4 be 88 bd 9e 4b 9f 3e
       -0.05380456 0.26101556 -0.06677011 0.3111238
0003b0 e9 51 a4 bd e5 28 69 bd 26 50 f7 3c e1 c9 b0 bd
       -0.080234356 -0.056923766 0.030189585 -0.08632255
0003c0 07 a1 6b be a9 29 25 be e4 dc bb bd 0e a4 16 3e
       -0.23010646 -0.16129173 -0.09172991 0.1471102
0003d0 be 9d a3 3b dd 6f cc 3d f4 fc 68 be c7 0c 51 be
       0.0049931696 0.09982274 -0.22752744 -0.2041503
0003e0 e5 25 f3 3d 6b 65 fd 3d ab 18 24 bd 4b 81 dd 3d
       0.11872462 0.123728596 -0.040062588 0.10815676
0003f0 9c 2d 96 ba 41 02 b9 3d 19 d2 6a 3d f1 3a 1c bd
       -0.0011457684 0.09033633 0.05732927 -0.03814215

fc2.bias f4 [10]
000000 2c 73 be bd c5 e8 40 3d d7 22 0e bb b0 08 a9 bd
       -0.09299311 0.047096986 -0.0021688247 -0.0825361
000010 4d bd 9e bc 8b 0c 8d bd 0d 29 5c 3b 5a c7 d5 3d
       -0.019377375 -0.06887158 0.0033593804 0.10438414
000020 2c 8b 38 3e df e9 15 be
       0.1802184 -0.14639996
